// Sample MLIR file for testing photonic dialect
// This represents a simple linear transformation in photonic dialect

module {
  // Function representing a linear layer: y = Wx + b
  func.func @linear_forward(%input: tensor<1x10xf32>, %weight: tensor<10x5xf32>, %bias: tensor<5xf32>) -> tensor<1x5xf32> {
    // Matrix multiplication in photonic domain
    %0 = photonic.matmul %input, %weight {wavelength = 1550 : i32, mesh_config = "butterfly"} : 
         tensor<1x10xf32>, tensor<10x5xf32> -> tensor<1x5xf32>
    
    // Add bias (electronic domain)
    %1 = arith.addf %0, %bias : tensor<1x5xf32>
    
    return %1 : tensor<1x5xf32>
  }
  
  // Function with thermal compensation
  func.func @linear_with_thermal(%input: tensor<1x10xf32>, %weight: tensor<10x5xf32>) -> tensor<1x5xf32> {
    // Thermal sensor reading
    %temp = photonic.thermal_sense : !photonic.temperature
    
    // Thermal compensation calculation
    %compensation = photonic.thermal_compensate %temp : !photonic.temperature -> tensor<10x5xf32>
    
    // Apply compensation to weights
    %corrected_weight = arith.addf %weight, %compensation : tensor<10x5xf32>
    
    // Photonic matrix multiplication with corrected weights
    %result = photonic.matmul %input, %corrected_weight {wavelength = 1550 : i32} : 
              tensor<1x10xf32>, tensor<10x5xf32> -> tensor<1x5xf32>
    
    return %result : tensor<1x5xf32>
  }
  
  // Function demonstrating phase optimization
  func.func @optimized_matmul(%input: tensor<64x64xf32>, %weight: tensor<64x64xf32>) -> tensor<64x64xf32> {
    // Decompose matrix for mesh mapping
    %decomposed_weight = photonic.matrix_decompose %weight {mesh_size = [64, 64]} : 
                         tensor<64x64xf32> -> !photonic.mesh_weights<64x64>
    
    // Optimize phase shifts
    %optimized = photonic.phase_optimize %decomposed_weight : 
                 !photonic.mesh_weights<64x64> -> !photonic.mesh_weights<64x64>
    
    // Execute on photonic mesh
    %result = photonic.mesh_execute %input, %optimized : 
              tensor<64x64xf32>, !photonic.mesh_weights<64x64> -> tensor<64x64xf32>
    
    return %result : tensor<64x64xf32>
  }
  
  // Multi-wavelength operation
  func.func @multi_wavelength_matmul(%input: tensor<1x32xf32>, %weight: tensor<32x16xf32>) -> tensor<1x16xf32> {
    // Split operation across multiple wavelengths
    %wl1_result = photonic.matmul %input, %weight {wavelength = 1530 : i32} : 
                  tensor<1x32xf32>, tensor<32x16xf32> -> tensor<1x16xf32>
    
    %wl2_result = photonic.matmul %input, %weight {wavelength = 1550 : i32} : 
                  tensor<1x32xf32>, tensor<32x16xf32> -> tensor<1x16xf32>
    
    %wl3_result = photonic.matmul %input, %weight {wavelength = 1570 : i32} : 
                  tensor<1x32xf32>, tensor<32x16xf32> -> tensor<1x16xf32>
    
    // Combine wavelength results
    %combined = photonic.wavelength_combine %wl1_result, %wl2_result, %wl3_result : 
                tensor<1x16xf32>, tensor<1x16xf32>, tensor<1x16xf32> -> tensor<1x16xf32>
    
    return %combined : tensor<1x16xf32>
  }
  
  // Convolution operation in photonic domain
  func.func @photonic_conv2d(%input: tensor<1x3x32x32xf32>, %weight: tensor<16x3x3x3xf32>) -> tensor<1x16x30x30xf32> {
    // Unfold input for matrix multiplication representation
    %unfolded = photonic.unfold %input {kernel_size = [3, 3], stride = [1, 1]} : 
                tensor<1x3x32x32xf32> -> tensor<900x27xf32>
    
    // Reshape weights for matrix multiplication
    %reshaped_weight = tensor.reshape %weight : tensor<16x3x3x3xf32> to tensor<16x27xf32>
    %transposed_weight = linalg.transpose ins(%reshaped_weight : tensor<16x27xf32>) 
                                           outs(%reshaped_weight : tensor<27x16xf32>) 
                                           permutation = [1, 0]
    
    // Photonic matrix multiplication
    %conv_result = photonic.matmul %unfolded, %transposed_weight {wavelength = 1550 : i32} : 
                   tensor<900x27xf32>, tensor<27x16xf32> -> tensor<900x16xf32>
    
    // Fold back to spatial dimensions
    %folded = photonic.fold %conv_result : tensor<900x16xf32> -> tensor<1x16x30x30xf32>
    
    return %folded : tensor<1x16x30x30xf32>
  }
}